…
net_model,lenet_history = run_test_harness((trainX, trainY, testX, testY),'lenet',32)\n","lenet_model.save('lenet_cnn_batch_32.h5')\n","# evaluate model\n","_, acc = lenet_model.evaluate(testX, testY, verbose=0)\n","print('> %.3f' % (acc * 100.0))"],"execution_count":null,"outputs":[{"output_type":"stream","name":"stdout","text":["Model: \"sequential_1\"\n","_________________________________________________________________\n","Layer (type)                 Output Shape              Param #   \n","=================================================================\n","conv2d_6 (Conv2D)            (None, 28, 28, 6)         456       \n","_________________________________________________________________\n","max_pooling2d_3 (MaxPooling2 (None, 14, 14, 6)         0         \n","_________________________________________________________________\n","conv2d_7 (Conv2D)            (None, 10, 10, 16)        2416      \n","_________________________________________________________________\n","max_pooling2d_4 (MaxPooling2 (None, 5, 5, 16)          0         \n","_________________________________________________________________\n","conv2d_8 (Conv2D)            (None, 1, 1, 120)         48120     \n","_________________________________________________________________\n","flatten_1 (Flatten)          (None, 120)               0         \n","_________________________________________________________________\n","dense_2 (Dense)              (None, 84)                10164     \n","_________________________________________________________________\n","dense_3 (Dense)              (None, 10)                850       \n","=================================================================\n","Total params: 62,006\n","Trainable params: 62,006\n","Non-trainable params: 0\n","_________________________________________________________________\n","Epoch 1/25\n","1563/1563 [==============================] - 10s 6ms/step - loss: 1.6084 - accuracy: 0.4093 - val_loss: 1.4323 - val_accuracy: 0.4769\n","Epoch 2/25\n"
…
146-0d27371c6d36"},"source":["model,history = run_test_harness((trainX, trainY, testX, testY),'cnn',32)\n","model.save('cnn_batch_32.h5')\n","# evaluate model\n","_, acc = model.evaluate(testX, testY, verbose=0)\n","print('> %.3f' % (acc * 100.0))"],"execution_count":null,"outputs":[{"output_type":"stream","name":"stdout","text":["Model: \"sequential_3\"\n","_________________________________________________________________\n","Layer (type)                 Output Shape              Param #   \n","=================================================================\n","conv2d_12 (Conv2D)           (None, 32, 32, 32)        896       \n","_________________________________________________________________\n","conv2d_13 (Conv2D)           (None, 32, 32, 32)        9248      \n","_________________________________________________________________\n","max_pooling2d_7 (MaxPooling2 (None, 16, 16, 32)        0         \n","_________________________________________________________________\n","conv2d_14 (Conv2D)           (None, 16, 16, 64)        18496     \n","_________________________________________________________________\n","conv2d_15 (Conv2D)           (None, 16, 16, 64)        36928     \n","_________________________________________________________________\n","max_pooling2d_8 (MaxPooling2 (None, 8, 8, 64)          0         \n","_________________________________________________________________\n","conv2d_16 (Conv2D)           (None, 8, 8, 128)         73856     \n","_________________________________________________________________\n","conv2d_17 (Conv2D)           (None, 8, 8, 128)         147584    \n","_________________________________________________________________\n","max_pooling2d_9 (MaxPooling2 (None, 4, 4, 128)         0         \n","_________________________________________________________________\n","flatten_3 (Flatten)          (None, 2048)              0         \n","_________________________________________________________________\n","dense_6 (Dense)              (None, 128)               262272    \n","_________________________________________________________________\n","dense_7 (Dense)              (None, 10)                1290      \n","=================================================================\n","Total params: 550,570\n","Trainable params: 550,570\n","Non-trainable params: 0\n","_________________________________________________________________\n","Epoch 1/25\n","1563/1563 [==============================] - 25s 15ms/step - loss: 1.3523 - accuracy: 0.5140 - val_loss: 1.0396 - val_accuracy: 0.6353\n","Epoch 2/25\
…
8-84bb-b6b818b7fb6e"},"source":["model,history = run_test_harness((trainX, trainY, testX, testY),'cnn4',32)\n","model.save('cnn_batch_32.h5')\n","# evaluate model\n","_, acc = model.evaluate(testX, testY, verbose=0)\n","print('> %.3f' % (acc * 100.0))"],"execution_count":11,"outputs":[{"output_type":"stream","name":"stdout","text":["Model: \"sequential\"\n","_________________________________________________________________\n","Layer (type)                 Output Shape              Param #   \n","=================================================================\n","conv2d (Conv2D)              (None, 32, 32, 32)        896       \n","_________________________________________________________________\n","conv2d_1 (Conv2D)            (None, 32, 32, 32)        9248      \n","_________________________________________________________________\n","max_pooling2d (MaxPooling2D) (None, 16, 16, 32)        0         \n","_________________________________________________________________\n","conv2d_2 (Conv2D)            (None, 16, 16, 32)        9248      \n","_________________________________________________________________\n","conv2d_3 (Conv2D)            (None, 16, 16, 32)        9248      \n","_________________________________________________________________\n","max_pooling2d_1 (MaxPooling2 (None, 8, 8, 32)          0         \n","_________________________________________________________________\n","conv2d_4 (Conv2D)            (None, 8, 8, 32)          9248      \n","_________________________________________________________________\n","conv2d_5 (Conv2D)            (None, 8, 8, 32)          9248      \n","_________________________________________________________________\n","max_pooling2d_2 (MaxPooling2 (None, 4, 4, 32)          0         \n","_________________________________________________________________\n","flatten (Flatten)            (None, 512)               0         \n","_________________________________________________________________\n","dense (Dense)                (None, 32)                16416     \n","_________________________________________________________________\n","dense_1 (Dense)              (None, 10)                330       \n","=================================================================\n","Total params: 63,882\n","Trainable params: 63,882\n","Non-trainable params: 0\n","_________________________________________________________________\n","Epoch 1/25\n","1563/1563 [==============================] - 48s 12ms/step - loss: 1.6184 - accuracy: 0.4072 - val_loss: 1.2556 - val_accuracy: 0.5402\n","Epoch 2/25\n
…
